…
2022-03-27 22:41:21.672904: I tensorflow/core/platform/cpu_feature_guard.cc:151] This TensorFlow binary is optimized with oneAPI Deep Neural Network Library (oneDNN) to use the following CPU instructions in performance-critical operations:  AVX2 FMA
To enable them in other operations, rebuild TensorFlow with the appropriate compiler flags.
Model: "model"
_________________________________________________________________
 Layer (type)                Output Shape              Param #   
=================================================================
 input_1 (InputLayer)        [(None, 187, 1)]          0         
                                                                 
 conv1d (Conv1D)             (None, 183, 16)           96        
                                                                 
 conv1d_1 (Conv1D)           (None, 179, 16)           1296      
                                                                 
 max_pooling1d (MaxPooling1D  (None, 89, 16)           0         
 )                                                               
                                                                 
 dropout (Dropout)           (None, 89, 16)            0         
                                                                 
 conv1d_2 (Conv1D)           (None, 87, 32)            1568      
                                                                 
 conv1d_3 (Conv1D)           (None, 85, 32)            3104      
                                                                 
 max_pooling1d_1 (MaxPooling  (None, 42, 32)           0         
 1D)                                                             
                                                                 
 dropout_1 (Dropout)         (None, 42, 32)            0         
                                                                 
 conv1d_4 (Conv1D)           (None, 40, 32)            3104      
                                                                 
 conv1d_5 (Conv1D)           (None, 38, 32)            3104      
                                                                 
 max_pooling1d_2 (MaxPooling  (None, 19, 32)           0         
 1D)                                                             
                                                                 
 dropout_2 (Dropout)         (None, 19, 32)            0         
                                                                 
 conv1d_6 (Conv1D)           (None, 17, 256)           24832     
                                                                 
 conv1d_7 (Conv1D)           (None, 15, 256)           196864    
                                                                 
 global_max_pooling1d (Globa  (None, 256)              0         
 lMaxPooling1D)                                                  
                                                                 
 dropout_3 (Dropout)         (None, 256)               0         
                                                                 
 dense_1 (Dense)             (None, 64)                16448     
                                                                 
 dense_2 (Dense)             (None, 64)                4160      
                                                                 
 dense_3_mitbih (Dense)      (None, 5)                 325       
                                                                 
=================================================================
Total params: 254,901
Trainable params: 254,901
Non-trainable params: 0
_________________________________________________________________
Epoch 1/1000

Epoch 1: val_acc improved from -inf to 0.92988, saving model to baseline_cnn_mitbih.h5
2463/2463 - 67s - loss: 0.3455 - acc: 0.8994 - val_loss: 0.2365 - val_acc: 0.9299 - lr: 0.0010 - 67s/epoch - 27ms/step
…
